…
2020-06-23 20:57:55.483482: I tensorflow/core/common_runtime/gpu/gpu_device.cc:1115] Created TensorFlow device (/job:localhost/replica:0/task:0/device:GPU:1 with 10420 MB memory) -> physical GPU (device: 1, name: GeForce GTX 1080 Ti, pci bus id: 0000:d8:00.0, compute capability: 6.1)
Discriminator Summary
__________________________________________________________________________________________________
Layer (type)                    Output Shape         Param #     Connected to                     
==================================================================================================
input_1 (InputLayer)            (None, 512, 512, 3)  0                                            
__________________________________________________________________________________________________
input_2 (InputLayer)            (None, 512, 512, 3)  0                                            
__________________________________________________________________________________________________
concatenate (Concatenate)       (None, 512, 512, 6)  0           input_1[0][0]                    
                                                                 input_2[0][0]                    
__________________________________________________________________________________________________
conv2d (Conv2D)                 (None, 256, 256, 64) 6208        concatenate[0][0]                
__________________________________________________________________________________________________
leaky_re_lu (LeakyReLU)         (None, 256, 256, 64) 0           conv2d[0][0]                     
__________________________________________________________________________________________________
conv2d_1 (Conv2D)               (None, 128, 128, 128 131200      leaky_re_lu[0][0]                
__________________________________________________________________________________________________
leaky_re_lu_1 (LeakyReLU)       (None, 128, 128, 128 0           conv2d_1[0][0]                   
__________________________________________________________________________________________________
batch_normalization (BatchNorma (None, 128, 128, 128 512         leaky_re_lu_1[0][0]              
__________________________________________________________________________________________________
conv2d_2 (Conv2D)               (None, 64, 64, 256)  524544      batch_normalization[0][0]        
__________________________________________________________________________________________________
leaky_re_lu_2 (LeakyReLU)       (None, 64, 64, 256)  0           conv2d_2[0][0]                   
__________________________________________________________________________________________________
batch_normalization_1 (BatchNor (None, 64, 64, 256)  1024        leaky_re_lu_2[0][0]              
__________________________________________________________________________________________________
conv2d_3 (Conv2D)               (None, 32, 32, 512)  2097664     batch_normalization_1[0][0]      
__________________________________________________________________________________________________
leaky_re_lu_3 (LeakyReLU)       (None, 32, 32, 512)  0           conv2d_3[0][0]                   
__________________________________________________________________________________________________
batch_normalization_2 (BatchNor (None, 32, 32, 512)  2048        leaky_re_lu_3[0][0]              
__________________________________________________________________________________________________
conv2d_4 (Conv2D)               (None, 32, 32, 1)    8193        batch_normalization_2[0][0]      
==================================================================================================
Total params: 2,771,393
Trainable params: 2,769,601
Non-trainable params: 1,792
__________________________________________________________________________________________________
Tensor("concatenate_4/concat:0", shape=(?, 512, 512, 112), dtype=float32)
Tensor("max_pooling2d/MaxPool:0", shape=(?, 256, 256, 96), dtype=float32)
…
Tensor("concatenate_50/concat:0", shape=(?, 128, 128, 320), dtype=float32)
Tensor("concatenate_55/concat:0", shape=(?, 256, 256, 272), dtype=float32)
Tensor("concatenate_60/concat:0", shape=(?, 512, 512, 224), dtype=float32)
Tensor("conv2d_66/Tanh:0", shape=(?, 512, 512, 3), dtype=float32)
__________________________________________________________________________________________________
Layer (type)                    Output Shape         Param #     Connected to                     
==================================================================================================
input_3 (InputLayer)            (None, 512, 512, 3)  0                                            
__________________________________________________________________________________________________
conv2d_5 (Conv2D)               (None, 512, 512, 48) 1344        input_3[0][0]                    
__________________________________________________________________________________________________
batch_normalization_3 (BatchNor (None, 512, 512, 48) 2048        conv2d_5[0][0]                   
__________________________________________________________________________________________________
activation (Activation)         (None, 512, 512, 48) 0           batch_normalization_3[0][0]      
__________________________________________________________________________________________________
conv2d_6 (Conv2D)               (None, 512, 512, 16) 6928        activation[0][0]                 
__________________________________________________________________________________________________
dropout (Dropout)               (None, 512, 512, 16) 0           conv2d_6[0][0]                   
__________________________________________________________________________________________________
concatenate_1 (Concatenate)     (None, 512, 512, 64) 0           dropout[0][0]                    
                                                                 conv2d_5[0][0]                   
__________________________________________________________________________________________________
batch_normalization_4 (BatchNor (None, 512, 512, 64) 2048        concatenate_1[0][0]              
__________________________________________________________________________________________________
activation_1 (Activation)       (None, 512, 512, 64) 0           batch_normalization_4[0][0]      
__________________________________________________________________________________________________
conv2d_7 (Conv2D)               (None, 512, 512, 16) 9232        activation_1[0][0]               
__________________________________________________________________________________________________
dropout_1 (Dropout)             (None, 512, 512, 16) 0           conv2d_7[0][0]                   
__________________________________________________________________________________________________
concatenate_2 (Concatenate)     (None, 512, 512, 80) 0           dropout_1[0][0]                  
                                                                 concatenate_1[0][0]              
__________________________________________________________________________________________________
batch_normalization_5 (BatchNor (None, 512, 512, 80) 2048        concatenate_2[0][0]              
__________________________________________________________________________________________________
activation_2 (Activation)       (None, 512, 512, 80) 0           batch_normalization_5[0][0]      
__________________________________________________________________________________________________
conv2d_8 (Conv2D)               (None, 512, 512, 16) 11536       activation_2[0][0]               
__________________________________________________________________________________________________
dropout_2 (Dropout)             (None, 512, 512, 16) 0           conv2d_8[0][0]                   
__________________________________________________________________________________________________
concatenate_3 (Concatenate)     (None, 512, 512, 96) 0           dropout_2[0][0]                  
                                                                 concatenate_2[0][0]              
__________________________________________________________________________________________________
batch_normalization_6 (BatchNor (None, 512, 512, 96) 2048        concatenate_3[0][0]              
__________________________________________________________________________________________________
activation_3 (Activation)       (None, 512, 512, 96) 0           batch_normalization_6[0][0]      
__________________________________________________________________________________________________
conv2d_9 (Conv2D)               (None, 512, 512, 16) 13840       activation_3[0][0]               
__________________________________________________________________________________________________
dropout_3 (Dropout)             (None, 512, 512, 16) 0           conv2d_9[0][0]                   
__________________________________________________________________________________________________
concatenate_4 (Concatenate)     (None, 512, 512, 112 0           dropout_3[0][0]                  
                                                                 concatenate_3[0][0]              
__________________________________________________________________________________________________
batch_normalization_7 (BatchNor (None, 512, 512, 112 2048        concatenate_4[0][0]              
__________________________________________________________________________________________________
activation_4 (Activation)       (None, 512, 512, 112 0           batch_normalization_7[0][0]      
__________________________________________________________________________________________________
conv2d_10 (Conv2D)              (None, 512, 512, 96) 10848       activation_4[0][0]               
__________________________________________________________________________________________________
dropout_4 (Dropout)             (None, 512, 512, 96) 0           conv2d_10[0][0]                  
__________________________________________________________________________________________________
max_pooling2d (MaxPooling2D)    (None, 256, 256, 96) 0           dropout_4[0][0]                  
__________________________________________________________________________________________________
batch_normalization_8 (BatchNor (None, 256, 256, 96) 1024        max_pooling2d[0][0]              
__________________________________________________________________________________________________
activation_5 (Activation)       (None, 256, 256, 96) 0           batch_normalization_8[0][0]      
__________________________________________________________________________________________________
conv2d_11 (Conv2D)              (None, 256, 256, 16) 13840       activation_5[0][0]               
__________________________________________________________________________________________________
dropout_5 (Dropout)             (None, 256, 256, 16) 0           conv2d_11[0][0]                  
__________________________________________________________________________________________________
concatenate_5 (Concatenate)     (None, 256, 256, 112 0           dropout_5[0][0]                  
                                                                 max_pooling2d[0][0]              
__________________________________________________________________________________________________
batch_normalization_9 (BatchNor (None, 256, 256, 112 1024        concatenate_5[0][0]              
__________________________________________________________________________________________________
activation_6 (Activation)       (None, 256, 256, 112 0           batch_normalization_9[0][0]      
__________________________________________________________________________________________________
conv2d_12 (Conv2D)              (None, 256, 256, 16) 16144       activation_6[0][0]               
__________________________________________________________________________________________________
dropout_6 (Dropout)             (None, 256, 256, 16) 0           conv2d_12[0][0]                  
__________________________________________________________________________________________________
concatenate_6 (Concatenate)     (None, 256, 256, 128 0           dropout_6[0][0]                  
                                                                 concatenate_5[0][0]              
__________________________________________________________________________________________________
batch_normalization_10 (BatchNo (None, 256, 256, 128 1024        concatenate_6[0][0]              
__________________________________________________________________________________________________
activation_7 (Activation)       (None, 256, 256, 128 0           batch_normalization_10[0][0]     
__________________________________________________________________________________________________
conv2d_13 (Conv2D)              (None, 256, 256, 16) 18448       activation_7[0][0]               
__________________________________________________________________________________________________
dropout_7 (Dropout)             (None, 256, 256, 16) 0           conv2d_13[0][0]                  
__________________________________________________________________________________________________
concatenate_7 (Concatenate)     (None, 256, 256, 144 0           dropout_7[0][0]                  
                                                                 concatenate_6[0][0]              
__________________________________________________________________________________________________
batch_normalization_11 (BatchNo (None, 256, 256, 144 1024        concatenate_7[0][0]              
__________________________________________________________________________________________________
activation_8 (Activation)       (None, 256, 256, 144 0           batch_normalization_11[0][0]     
__________________________________________________________________________________________________
conv2d_14 (Conv2D)              (None, 256, 256, 16) 20752       activation_8[0][0]               
__________________________________________________________________________________________________
dropout_8 (Dropout)             (None, 256, 256, 16) 0           conv2d_14[0][0]                  
__________________________________________________________________________________________________
concatenate_8 (Concatenate)     (None, 256, 256, 160 0           dropout_8[0][0]                  
                                                                 concatenate_7[0][0]              
__________________________________________________________________________________________________
…
max_pooling2d_1 (MaxPooling2D)  (None, 128, 128, 144 0           dropout_9[0][0]                  
__________________________________________________________________________________________________
batch_normalization_13 (BatchNo (None, 128, 128, 144 512         max_pooling2d_1[0][0]            
__________________________________________________________________________________________________
activation_10 (Activation)      (None, 128, 128, 144 0           batch_normalization_13[0][0]     
__________________________________________________________________________________________________
conv2d_16 (Conv2D)              (None, 128, 128, 16) 20752       activation_10[0][0]              
__________________________________________________________________________________________________
dropout_10 (Dropout)            (None, 128, 128, 16) 0           conv2d_16[0][0]                  
__________________________________________________________________________________________________
concatenate_9 (Concatenate)     (None, 128, 128, 160 0           dropout_10[0][0]                 
                                                                 max_pooling2d_1[0][0]            
__________________________________________________________________________________________________
batch_normalization_14 (BatchNo (None, 128, 128, 160 512         concatenate_9[0][0]              
__________________________________________________________________________________________________
activation_11 (Activation)      (None, 128, 128, 160 0           batch_normalization_14[0][0]     
__________________________________________________________________________________________________
conv2d_17 (Conv2D)              (None, 128, 128, 16) 23056       activation_11[0][0]              
__________________________________________________________________________________________________
dropout_11 (Dropout)            (None, 128, 128, 16) 0           conv2d_17[0][0]                  
__________________________________________________________________________________________________
concatenate_10 (Concatenate)    (None, 128, 128, 176 0           dropout_11[0][0]                 
                                                                 concatenate_9[0][0]              
__________________________________________________________________________________________________
batch_normalization_15 (BatchNo (None, 128, 128, 176 512         concatenate_10[0][0]             
__________________________________________________________________________________________________
activation_12 (Activation)      (None, 128, 128, 176 0           batch_normalization_15[0][0]     
__________________________________________________________________________________________________
conv2d_18 (Conv2D)              (None, 128, 128, 16) 25360       activation_12[0][0]              
__________________________________________________________________________________________________
dropout_12 (Dropout)            (None, 128, 128, 16) 0           conv2d_18[0][0]                  
__________________________________________________________________________________________________
concatenate_11 (Concatenate)    (None, 128, 128, 192 0           dropout_12[0][0]                 
                                                                 concatenate_10[0][0]             
__________________________________________________________________________________________________
batch_normalization_16 (BatchNo (None, 128, 128, 192 512         concatenate_11[0][0]             
__________________________________________________________________________________________________
activation_13 (Activation)      (None, 128, 128, 192 0           batch_normalization_16[0][0]     
__________________________________________________________________________________________________
conv2d_19 (Conv2D)              (None, 128, 128, 16) 27664       activation_13[0][0]              
__________________________________________________________________________________________________
dropout_13 (Dropout)            (None, 128, 128, 16) 0           conv2d_19[0][0]                  
__________________________________________________________________________________________________
concatenate_12 (Concatenate)    (None, 128, 128, 208 0           dropout_13[0][0]                 
                                                                 concatenate_11[0][0]             
__________________________________________________________________________________________________
…
activation_14 (Activation)      (None, 128, 128, 208 0           batch_normalization_17[0][0]     
__________________________________________________________________________________________________
conv2d_20 (Conv2D)              (None, 128, 128, 192 40128       activation_14[0][0]              
__________________________________________________________________________________________________
dropout_14 (Dropout)            (None, 128, 128, 192 0           conv2d_20[0][0]                  
__________________________________________________________________________________________________
max_pooling2d_2 (MaxPooling2D)  (None, 64, 64, 192)  0           dropout_14[0][0]                 
__________________________________________________________________________________________________
batch_normalization_18 (BatchNo (None, 64, 64, 192)  256         max_pooling2d_2[0][0]            
__________________________________________________________________________________________________
activation_15 (Activation)      (None, 64, 64, 192)  0           batch_normalization_18[0][0]     
__________________________________________________________________________________________________
conv2d_21 (Conv2D)              (None, 64, 64, 16)   27664       activation_15[0][0]              
__________________________________________________________________________________________________
dropout_15 (Dropout)            (None, 64, 64, 16)   0           conv2d_21[0][0]                  
__________________________________________________________________________________________________
concatenate_13 (Concatenate)    (None, 64, 64, 208)  0           dropout_15[0][0]                 
                                                                 max_pooling2d_2[0][0]            
__________________________________________________________________________________________________
batch_normalization_19 (BatchNo (None, 64, 64, 208)  256         concatenate_13[0][0]             
__________________________________________________________________________________________________
activation_16 (Activation)      (None, 64, 64, 208)  0           batch_normalization_19[0][0]     
__________________________________________________________________________________________________
conv2d_22 (Conv2D)              (None, 64, 64, 16)   29968       activation_16[0][0]              
__________________________________________________________________________________________________
dropout_16 (Dropout)            (None, 64, 64, 16)   0           conv2d_22[0][0]                  
__________________________________________________________________________________________________
concatenate_14 (Concatenate)    (None, 64, 64, 224)  0           dropout_16[0][0]                 
                                                                 concatenate_13[0][0]             
__________________________________________________________________________________________________
batch_normalization_20 (BatchNo (None, 64, 64, 224)  256         concatenate_14[0][0]             
__________________________________________________________________________________________________
activation_17 (Activation)      (None, 64, 64, 224)  0           batch_normalization_20[0][0]     
__________________________________________________________________________________________________
conv2d_23 (Conv2D)              (None, 64, 64, 16)   32272       activation_17[0][0]              
__________________________________________________________________________________________________
dropout_17 (Dropout)            (None, 64, 64, 16)   0           conv2d_23[0][0]                  
__________________________________________________________________________________________________
concatenate_15 (Concatenate)    (None, 64, 64, 240)  0           dropout_17[0][0]                 
                                                                 concatenate_14[0][0]             
__________________________________________________________________________________________________
batch_normalization_21 (BatchNo (None, 64, 64, 240)  256         concatenate_15[0][0]             
__________________________________________________________________________________________________
activation_18 (Activation)      (None, 64, 64, 240)  0           batch_normalization_21[0][0]     
__________________________________________________________________________________________________
conv2d_24 (Conv2D)              (None, 64, 64, 16)   34576       activation_18[0][0]              
__________________________________________________________________________________________________
dropout_18 (Dropout)            (None, 64, 64, 16)   0           conv2d_24[0][0]                  
__________________________________________________________________________________________________
concatenate_16 (Concatenate)    (None, 64, 64, 256)  0           dropout_18[0][0]                 
                                                                 concatenate_15[0][0]             
__________________________________________________________________________________________________
batch_normalization_22 (BatchNo (None, 64, 64, 256)  256         concatenate_16[0][0]             
__________________________________________________________________________________________________
activation_19 (Activation)      (None, 64, 64, 256)  0           batch_normalization_22[0][0]     
__________________________________________________________________________________________________
conv2d_25 (Conv2D)              (None, 64, 64, 240)  61680       activation_19[0][0]              
__________________________________________________________________________________________________
dropout_19 (Dropout)            (None, 64, 64, 240)  0           conv2d_25[0][0]                  
__________________________________________________________________________________________________
max_pooling2d_3 (MaxPooling2D)  (None, 32, 32, 240)  0           dropout_19[0][0]                 
__________________________________________________________________________________________________
batch_normalization_23 (BatchNo (None, 32, 32, 240)  128         max_pooling2d_3[0][0]            
__________________________________________________________________________________________________
activation_20 (Activation)      (None, 32, 32, 240)  0           batch_normalization_23[0][0]     
__________________________________________________________________________________________________
conv2d_26 (Conv2D)              (None, 32, 32, 16)   34576       activation_20[0][0]              
__________________________________________________________________________________________________
dropout_20 (Dropout)            (None, 32, 32, 16)   0           conv2d_26[0][0]                  
__________________________________________________________________________________________________
concatenate_17 (Concatenate)    (None, 32, 32, 256)  0           dropout_20[0][0]                 
                                                                 max_pooling2d_3[0][0]            
__________________________________________________________________________________________________
batch_normalization_24 (BatchNo (None, 32, 32, 256)  128         concatenate_17[0][0]             
__________________________________________________________________________________________________
activation_21 (Activation)      (None, 32, 32, 256)  0           batch_normalization_24[0][0]     
__________________________________________________________________________________________________
conv2d_27 (Conv2D)              (None, 32, 32, 16)   36880       activation_21[0][0]              
__________________________________________________________________________________________________
dropout_21 (Dropout)            (None, 32, 32, 16)   0           conv2d_27[0][0]                  
__________________________________________________________________________________________________
concatenate_18 (Concatenate)    (None, 32, 32, 272)  0           dropout_21[0][0]                 
                                                                 concatenate_17[0][0]             
__________________________________________________________________________________________________
batch_normalization_25 (BatchNo (None, 32, 32, 272)  128         concatenate_18[0][0]             
__________________________________________________________________________________________________
activation_22 (Activation)      (None, 32, 32, 272)  0           batch_normalization_25[0][0]     
__________________________________________________________________________________________________
conv2d_28 (Conv2D)              (None, 32, 32, 16)   39184       activation_22[0][0]              
__________________________________________________________________________________________________
dropout_22 (Dropout)            (None, 32, 32, 16)   0           conv2d_28[0][0]                  
__________________________________________________________________________________________________
concatenate_19 (Concatenate)    (None, 32, 32, 288)  0           dropout_22[0][0]                 
                                                                 concatenate_18[0][0]             
__________________________________________________________________________________________________
batch_normalization_26 (BatchNo (None, 32, 32, 288)  128         concatenate_19[0][0]             
__________________________________________________________________________________________________
activation_23 (Activation)      (None, 32, 32, 288)  0           batch_normalization_26[0][0]     
__________________________________________________________________________________________________
conv2d_29 (Conv2D)              (None, 32, 32, 16)   41488       activation_23[0][0]              
__________________________________________________________________________________________________
dropout_23 (Dropout)            (None, 32, 32, 16)   0           conv2d_29[0][0]                  
__________________________________________________________________________________________________
concatenate_20 (Concatenate)    (None, 32, 32, 304)  0           dropout_23[0][0]                 
                                                                 concatenate_19[0][0]             
__________________________________________________________________________________________________
batch_normalization_27 (BatchNo (None, 32, 32, 304)  128         concatenate_20[0][0]             
__________________________________________________________________________________________________
activation_24 (Activation)      (None, 32, 32, 304)  0           batch_normalization_27[0][0]     
__________________________________________________________________________________________________
conv2d_30 (Conv2D)              (None, 32, 32, 288)  87840       activation_24[0][0]              
__________________________________________________________________________________________________
dropout_24 (Dropout)            (None, 32, 32, 288)  0           conv2d_30[0][0]                  
__________________________________________________________________________________________________
max_pooling2d_4 (MaxPooling2D)  (None, 16, 16, 288)  0           dropout_24[0][0]                 
__________________________________________________________________________________________________
batch_normalization_28 (BatchNo (None, 16, 16, 288)  64          max_pooling2d_4[0][0]            
__________________________________________________________________________________________________
activation_25 (Activation)      (None, 16, 16, 288)  0           batch_normalization_28[0][0]     
__________________________________________________________________________________________________
conv2d_31 (Conv2D)              (None, 16, 16, 16)   41488       activation_25[0][0]              
__________________________________________________________________________________________________
dropout_25 (Dropout)            (None, 16, 16, 16)   0           conv2d_31[0][0]                  
__________________________________________________________________________________________________
concatenate_21 (Concatenate)    (None, 16, 16, 304)  0           dropout_25[0][0]                 
                                                                 max_pooling2d_4[0][0]            
__________________________________________________________________________________________________
batch_normalization_29 (BatchNo (None, 16, 16, 304)  64          concatenate_21[0][0]             
__________________________________________________________________________________________________
activation_26 (Activation)      (None, 16, 16, 304)  0           batch_normalization_29[0][0]     
__________________________________________________________________________________________________
conv2d_32 (Conv2D)              (None, 16, 16, 16)   43792       activation_26[0][0]              
__________________________________________________________________________________________________
dropout_26 (Dropout)            (None, 16, 16, 16)   0           conv2d_32[0][0]                  
__________________________________________________________________________________________________
concatenate_22 (Concatenate)    (None, 16, 16, 320)  0           dropout_26[0][0]                 
                                                                 concatenate_21[0][0]             
__________________________________________________________________________________________________
batch_normalization_30 (BatchNo (None, 16, 16, 320)  64          concatenate_22[0][0]             
__________________________________________________________________________________________________
activation_27 (Activation)      (None, 16, 16, 320)  0           batch_normalization_30[0][0]     
__________________________________________________________________________________________________
conv2d_33 (Conv2D)              (None, 16, 16, 16)   46096       activation_27[0][0]              
__________________________________________________________________________________________________
dropout_27 (Dropout)            (None, 16, 16, 16)   0           conv2d_33[0][0]                  
__________________________________________________________________________________________________
concatenate_23 (Concatenate)    (None, 16, 16, 336)  0           dropout_27[0][0]                 
                                                                 concatenate_22[0][0]             
__________________________________________________________________________________________________
batch_normalization_31 (BatchNo (None, 16, 16, 336)  64          concatenate_23[0][0]             
__________________________________________________________________________________________________
activation_28 (Activation)      (None, 16, 16, 336)  0           batch_normalization_31[0][0]     
__________________________________________________________________________________________________
conv2d_34 (Conv2D)              (None, 16, 16, 16)   48400       activation_28[0][0]              
__________________________________________________________________________________________________
dropout_28 (Dropout)            (None, 16, 16, 16)   0           conv2d_34[0][0]                  
__________________________________________________________________________________________________
concatenate_24 (Concatenate)    (None, 16, 16, 352)  0           dropout_28[0][0]                 
                                                                 concatenate_23[0][0]             
__________________________________________________________________________________________________
conv2d_transpose (Conv2DTranspo (None, 32, 32, 48)   152112      concatenate_24[0][0]             
__________________________________________________________________________________________________
concatenate_25 (Concatenate)    (None, 32, 32, 352)  0           conv2d_transpose[0][0]           
                                                                 concatenate_20[0][0]             
__________________________________________________________________________________________________
batch_normalization_32 (BatchNo (None, 32, 32, 352)  128         concatenate_25[0][0]             
__________________________________________________________________________________________________
activation_29 (Activation)      (None, 32, 32, 352)  0           batch_normalization_32[0][0]     
__________________________________________________________________________________________________
conv2d_35 (Conv2D)              (None, 32, 32, 16)   50704       activation_29[0][0]              
__________________________________________________________________________________________________
dropout_29 (Dropout)            (None, 32, 32, 16)   0           conv2d_35[0][0]                  
__________________________________________________________________________________________________
concatenate_26 (Concatenate)    (None, 32, 32, 368)  0           dropout_29[0][0]                 
                                                                 concatenate_25[0][0]             
__________________________________________________________________________________________________
batch_normalization_33 (BatchNo (None, 32, 32, 368)  128         concatenate_26[0][0]             
__________________________________________________________________________________________________
activation_30 (Activation)      (None, 32, 32, 368)  0           batch_normalization_33[0][0]     
__________________________________________________________________________________________________
conv2d_36 (Conv2D)              (None, 32, 32, 16)   53008       activation_30[0][0]              
__________________________________________________________________________________________________
dropout_30 (Dropout)            (None, 32, 32, 16)   0           conv2d_36[0][0]                  
__________________________________________________________________________________________________
concatenate_27 (Concatenate)    (None, 32, 32, 384)  0           dropout_30[0][0]                 
                                                                 concatenate_26[0][0]             
__________________________________________________________________________________________________
batch_normalization_34 (BatchNo (None, 32, 32, 384)  128         concatenate_27[0][0]             
__________________________________________________________________________________________________
activation_31 (Activation)      (None, 32, 32, 384)  0           batch_normalization_34[0][0]     
__________________________________________________________________________________________________
conv2d_37 (Conv2D)              (None, 32, 32, 16)   55312       activation_31[0][0]              
__________________________________________________________________________________________________
dropout_31 (Dropout)            (None, 32, 32, 16)   0           conv2d_37[0][0]                  
__________________________________________________________________________________________________
concatenate_28 (Concatenate)    (None, 32, 32, 400)  0           dropout_31[0][0]                 
                                                                 concatenate_27[0][0]             
__________________________________________________________________________________________________
batch_normalization_35 (BatchNo (None, 32, 32, 400)  128         concatenate_28[0][0]             
__________________________________________________________________________________________________
activation_32 (Activation)      (None, 32, 32, 400)  0           batch_normalization_35[0][0]     
__________________________________________________________________________________________________
conv2d_38 (Conv2D)              (None, 32, 32, 16)   57616       activation_32[0][0]              
__________________________________________________________________________________________________
dropout_32 (Dropout)            (None, 32, 32, 16)   0           conv2d_38[0][0]                  
__________________________________________________________________________________________________
concatenate_29 (Concatenate)    (None, 32, 32, 416)  0           dropout_32[0][0]                 
                                                                 concatenate_28[0][0]             
__________________________________________________________________________________________________
batch_normalization_36 (BatchNo (None, 32, 32, 416)  128         concatenate_29[0][0]             
__________________________________________________________________________________________________
activation_33 (Activation)      (None, 32, 32, 416)  0           batch_normalization_36[0][0]     
__________________________________________________________________________________________________
conv2d_39 (Conv2D)              (None, 32, 32, 16)   59920       activation_33[0][0]              
__________________________________________________________________________________________________
dropout_33 (Dropout)            (None, 32, 32, 16)   0           conv2d_39[0][0]                  
__________________________________________________________________________________________________
concatenate_30 (Concatenate)    (None, 32, 32, 432)  0           dropout_33[0][0]                 
                                                                 concatenate_29[0][0]             
__________________________________________________________________________________________________
batch_normalization_37 (BatchNo (None, 32, 32, 432)  128         concatenate_30[0][0]             
__________________________________________________________________________________________________
activation_34 (Activation)      (None, 32, 32, 432)  0           batch_normalization_37[0][0]     
__________________________________________________________________________________________________
conv2d_40 (Conv2D)              (None, 32, 32, 16)   62224       activation_34[0][0]              
__________________________________________________________________________________________________
dropout_34 (Dropout)            (None, 32, 32, 16)   0           conv2d_40[0][0]                  
__________________________________________________________________________________________________
concatenate_31 (Concatenate)    (None, 32, 32, 448)  0           dropout_34[0][0]                 
                                                                 concatenate_30[0][0]             
__________________________________________________________________________________________________
batch_normalization_38 (BatchNo (None, 32, 32, 448)  128         concatenate_31[0][0]             
__________________________________________________________________________________________________
activation_35 (Activation)      (None, 32, 32, 448)  0           batch_normalization_38[0][0]     
__________________________________________________________________________________________________
conv2d_41 (Conv2D)              (None, 32, 32, 16)   64528       activation_35[0][0]              
__________________________________________________________________________________________________
dropout_35 (Dropout)            (None, 32, 32, 16)   0           conv2d_41[0][0]                  
__________________________________________________________________________________________________
concatenate_32 (Concatenate)    (None, 32, 32, 464)  0           dropout_35[0][0]                 
                                                                 concatenate_31[0][0]             
__________________________________________________________________________________________________
batch_normalization_39 (BatchNo (None, 32, 32, 464)  128         concatenate_32[0][0]             
__________________________________________________________________________________________________
activation_36 (Activation)      (None, 32, 32, 464)  0           batch_normalization_39[0][0]     
__________________________________________________________________________________________________
conv2d_42 (Conv2D)              (None, 32, 32, 16)   66832       activation_36[0][0]              
__________________________________________________________________________________________________
dropout_36 (Dropout)            (None, 32, 32, 16)   0           conv2d_42[0][0]                  
__________________________________________________________________________________________________
concatenate_33 (Concatenate)    (None, 32, 32, 480)  0           dropout_36[0][0]                 
                                                                 concatenate_32[0][0]             
__________________________________________________________________________________________________
batch_normalization_40 (BatchNo (None, 32, 32, 480)  128         concatenate_33[0][0]             
__________________________________________________________________________________________________
activation_37 (Activation)      (None, 32, 32, 480)  0           batch_normalization_40[0][0]     
__________________________________________________________________________________________________
conv2d_43 (Conv2D)              (None, 32, 32, 16)   69136       activation_37[0][0]              
__________________________________________________________________________________________________
dropout_37 (Dropout)            (None, 32, 32, 16)   0           conv2d_43[0][0]                  
__________________________________________________________________________________________________
concatenate_34 (Concatenate)    (None, 32, 32, 496)  0           dropout_37[0][0]                 
                                                                 concatenate_33[0][0]             
__________________________________________________________________________________________________
batch_normalization_41 (BatchNo (None, 32, 32, 496)  128         concatenate_34[0][0]             
__________________________________________________________________________________________________
activation_38 (Activation)      (None, 32, 32, 496)  0           batch_normalization_41[0][0]     
__________________________________________________________________________________________________
conv2d_44 (Conv2D)              (None, 32, 32, 16)   71440       activation_38[0][0]              
__________________________________________________________________________________________________
dropout_38 (Dropout)            (None, 32, 32, 16)   0           conv2d_44[0][0]                  
__________________________________________________________________________________________________
concatenate_35 (Concatenate)    (None, 32, 32, 512)  0           dropout_38[0][0]                 
                                                                 concatenate_34[0][0]             
__________________________________________________________________________________________________
batch_normalization_42 (BatchNo (None, 32, 32, 512)  128         concatenate_35[0][0]             
__________________________________________________________________________________________________
activation_39 (Activation)      (None, 32, 32, 512)  0           batch_normalization_42[0][0]     
__________________________________________________________________________________________________
conv2d_45 (Conv2D)              (None, 32, 32, 16)   73744       activation_39[0][0]              
__________________________________________________________________________________________________
dropout_39 (Dropout)            (None, 32, 32, 16)   0           conv2d_45[0][0]                  
__________________________________________________________________________________________________
concatenate_36 (Concatenate)    (None, 32, 32, 528)  0           dropout_39[0][0]                 
                                                                 concatenate_35[0][0]             
__________________________________________________________________________________________________
batch_normalization_43 (BatchNo (None, 32, 32, 528)  128         concatenate_36[0][0]             
__________________________________________________________________________________________________
activation_40 (Activation)      (None, 32, 32, 528)  0           batch_normalization_43[0][0]     
__________________________________________________________________________________________________
conv2d_46 (Conv2D)              (None, 32, 32, 16)   76048       activation_40[0][0]              
__________________________________________________________________________________________________
dropout_40 (Dropout)            (None, 32, 32, 16)   0           conv2d_46[0][0]                  
__________________________________________________________________________________________________
concatenate_37 (Concatenate)    (None, 32, 32, 544)  0           dropout_40[0][0]                 
                                                                 concatenate_36[0][0]             
__________________________________________________________________________________________________
batch_normalization_44 (BatchNo (None, 32, 32, 544)  128         concatenate_37[0][0]             
__________________________________________________________________________________________________
activation_41 (Activation)      (None, 32, 32, 544)  0           batch_normalization_44[0][0]     
__________________________________________________________________________________________________
conv2d_47 (Conv2D)              (None, 32, 32, 16)   78352       activation_41[0][0]              
__________________________________________________________________________________________________
dropout_41 (Dropout)            (None, 32, 32, 16)   0           conv2d_47[0][0]                  
__________________________________________________________________________________________________
concatenate_38 (Concatenate)    (None, 32, 32, 560)  0           dropout_41[0][0]                 
                                                                 concatenate_37[0][0]             
__________________________________________________________________________________________________
batch_normalization_45 (BatchNo (None, 32, 32, 560)  128         concatenate_38[0][0]             
__________________________________________________________________________________________________
activation_42 (Activation)      (None, 32, 32, 560)  0           batch_normalization_45[0][0]     
__________________________________________________________________________________________________
conv2d_48 (Conv2D)              (None, 32, 32, 16)   80656       activation_42[0][0]              
__________________________________________________________________________________________________
dropout_42 (Dropout)            (None, 32, 32, 16)   0           conv2d_48[0][0]                  
__________________________________________________________________________________________________
concatenate_39 (Concatenate)    (None, 32, 32, 576)  0           dropout_42[0][0]                 
                                                                 concatenate_38[0][0]             
__________________________________________________________________________________________________
batch_normalization_46 (BatchNo (None, 32, 32, 576)  128         concatenate_39[0][0]             
__________________________________________________________________________________________________
activation_43 (Activation)      (None, 32, 32, 576)  0           batch_normalization_46[0][0]     
__________________________________________________________________________________________________
conv2d_49 (Conv2D)              (None, 32, 32, 16)   82960       activation_43[0][0]              
__________________________________________________________________________________________________
dropout_43 (Dropout)            (None, 32, 32, 16)   0           conv2d_49[0][0]                  
__________________________________________________________________________________________________
concatenate_40 (Concatenate)    (None, 32, 32, 592)  0           dropout_43[0][0]                 
                                                                 concatenate_39[0][0]             
__________________________________________________________________________________________________
conv2d_transpose_1 (Conv2DTrans (None, 64, 64, 180)  959220      concatenate_40[0][0]             
__________________________________________________________________________________________________
concatenate_41 (Concatenate)    (None, 64, 64, 436)  0           conv2d_transpose_1[0][0]         
                                                                 concatenate_16[0][0]             
__________________________________________________________________________________________________
batch_normalization_47 (BatchNo (None, 64, 64, 436)  256         concatenate_41[0][0]             
__________________________________________________________________________________________________
activation_44 (Activation)      (None, 64, 64, 436)  0           batch_normalization_47[0][0]     
__________________________________________________________________________________________________
conv2d_50 (Conv2D)              (None, 64, 64, 16)   62800       activation_44[0][0]              
__________________________________________________________________________________________________
dropout_44 (Dropout)            (None, 64, 64, 16)   0           conv2d_50[0][0]                  
__________________________________________________________________________________________________
concatenate_42 (Concatenate)    (None, 64, 64, 452)  0           dropout_44[0][0]                 
                                                                 concatenate_41[0][0]             
__________________________________________________________________________________________________
batch_normalization_48 (BatchNo (None, 64, 64, 452)  256         concatenate_42[0][0]             
__________________________________________________________________________________________________
activation_45 (Activation)      (None, 64, 64, 452)  0           batch_normalization_48[0][0]     
__________________________________________________________________________________________________
conv2d_51 (Conv2D)              (None, 64, 64, 16)   65104       activation_45[0][0]              
__________________________________________________________________________________________________
dropout_45 (Dropout)            (None, 64, 64, 16)   0           conv2d_51[0][0]                  
__________________________________________________________________________________________________
concatenate_43 (Concatenate)    (None, 64, 64, 468)  0           dropout_45[0][0]                 
                                                                 concatenate_42[0][0]             
__________________________________________________________________________________________________
batch_normalization_49 (BatchNo (None, 64, 64, 468)  256         concatenate_43[0][0]             
__________________________________________________________________________________________________
activation_46 (Activation)      (None, 64, 64, 468)  0           batch_normalization_49[0][0]     
__________________________________________________________________________________________________
conv2d_52 (Conv2D)              (None, 64, 64, 16)   67408       activation_46[0][0]              
__________________________________________________________________________________________________
dropout_46 (Dropout)            (None, 64, 64, 16)   0           conv2d_52[0][0]                  
__________________________________________________________________________________________________
concatenate_44 (Concatenate)    (None, 64, 64, 484)  0           dropout_46[0][0]                 
                                                                 concatenate_43[0][0]             
__________________________________________________________________________________________________
batch_normalization_50 (BatchNo (None, 64, 64, 484)  256         concatenate_44[0][0]             
__________________________________________________________________________________________________
activation_47 (Activation)      (None, 64, 64, 484)  0           batch_normalization_50[0][0]     
__________________________________________________________________________________________________
conv2d_53 (Conv2D)              (None, 64, 64, 16)   69712       activation_47[0][0]              
__________________________________________________________________________________________________
dropout_47 (Dropout)            (None, 64, 64, 16)   0           conv2d_53[0][0]                  
__________________________________________________________________________________________________
concatenate_45 (Concatenate)    (None, 64, 64, 500)  0           dropout_47[0][0]                 
                                                                 concatenate_44[0][0]             
__________________________________________________________________________________________________
conv2d_transpose_2 (Conv2DTrans (None, 128, 128, 48) 216048      concatenate_45[0][0]             
__________________________________________________________________________________________________
concatenate_46 (Concatenate)    (None, 128, 128, 256 0           conv2d_transpose_2[0][0]         
                                                                 concatenate_12[0][0]             
__________________________________________________________________________________________________
batch_normalization_51 (BatchNo (None, 128, 128, 256 512         concatenate_46[0][0]             
__________________________________________________________________________________________________
activation_48 (Activation)      (None, 128, 128, 256 0           batch_normalization_51[0][0]     
__________________________________________________________________________________________________
conv2d_54 (Conv2D)              (None, 128, 128, 16) 36880       activation_48[0][0]              
__________________________________________________________________________________________________
dropout_48 (Dropout)            (None, 128, 128, 16) 0           conv2d_54[0][0]                  
__________________________________________________________________________________________________
concatenate_47 (Concatenate)    (None, 128, 128, 272 0           dropout_48[0][0]                 
                                                                 concatenate_46[0][0]             
__________________________________________________________________________________________________
batch_normalization_52 (BatchNo (None, 128, 128, 272 512         concatenate_47[0][0]             
__________________________________________________________________________________________________
activation_49 (Activation)      (None, 128, 128, 272 0           batch_normalization_52[0][0]     
__________________________________________________________________________________________________
conv2d_55 (Conv2D)              (None, 128, 128, 16) 39184       activation_49[0][0]              
__________________________________________________________________________________________________
dropout_49 (Dropout)            (None, 128, 128, 16) 0           conv2d_55[0][0]                  
__________________________________________________________________________________________________
concatenate_48 (Concatenate)    (None, 128, 128, 288 0           dropout_49[0][0]                 
                                                                 concatenate_47[0][0]             
__________________________________________________________________________________________________
batch_normalization_53 (BatchNo (None, 128, 128, 288 512         concatenate_48[0][0]             
__________________________________________________________________________________________________
activation_50 (Activation)      (None, 128, 128, 288 0           batch_normalization_53[0][0]     
__________________________________________________________________________________________________
conv2d_56 (Conv2D)              (None, 128, 128, 16) 41488       activation_50[0][0]              
__________________________________________________________________________________________________
dropout_50 (Dropout)            (None, 128, 128, 16) 0           conv2d_56[0][0]                  
__________________________________________________________________________________________________
concatenate_49 (Concatenate)    (None, 128, 128, 304 0           dropout_50[0][0]                 
                                                                 concatenate_48[0][0]             
__________________________________________________________________________________________________
batch_normalization_54 (BatchNo (None, 128, 128, 304 512         concatenate_49[0][0]             
__________________________________________________________________________________________________
activation_51 (Activation)      (None, 128, 128, 304 0           batch_normalization_54[0][0]     
__________________________________________________________________________________________________
conv2d_57 (Conv2D)              (None, 128, 128, 16) 43792       activation_51[0][0]              
__________________________________________________________________________________________________
dropout_51 (Dropout)            (None, 128, 128, 16) 0           conv2d_57[0][0]                  
__________________________________________________________________________________________________
concatenate_50 (Concatenate)    (None, 128, 128, 320 0           dropout_51[0][0]                 
                                                                 concatenate_49[0][0]             
__________________________________________________________________________________________________
conv2d_transpose_3 (Conv2DTrans (None, 256, 256, 48) 138288      concatenate_50[0][0]             
__________________________________________________________________________________________________
concatenate_51 (Concatenate)    (None, 256, 256, 208 0           conv2d_transpose_3[0][0]         
                                                                 concatenate_8[0][0]              
__________________________________________________________________________________________________
batch_normalization_55 (BatchNo (None, 256, 256, 208 1024        concatenate_51[0][0]             
__________________________________________________________________________________________________
activation_52 (Activation)      (None, 256, 256, 208 0           batch_normalization_55[0][0]     
__________________________________________________________________________________________________
conv2d_58 (Conv2D)              (None, 256, 256, 16) 29968       activation_52[0][0]              
__________________________________________________________________________________________________
dropout_52 (Dropout)            (None, 256, 256, 16) 0           conv2d_58[0][0]                  
__________________________________________________________________________________________________
concatenate_52 (Concatenate)    (None, 256, 256, 224 0           dropout_52[0][0]                 
                                                                 concatenate_51[0][0]             
__________________________________________________________________________________________________
batch_normalization_56 (BatchNo (None, 256, 256, 224 1024        concatenate_52[0][0]             
__________________________________________________________________________________________________
activation_53 (Activation)      (None, 256, 256, 224 0           batch_normalization_56[0][0]     
__________________________________________________________________________________________________
conv2d_59 (Conv2D)              (None, 256, 256, 16) 32272       activation_53[0][0]              
__________________________________________________________________________________________________
dropout_53 (Dropout)            (None, 256, 256, 16) 0           conv2d_59[0][0]                  
__________________________________________________________________________________________________
concatenate_53 (Concatenate)    (None, 256, 256, 240 0           dropout_53[0][0]                 
                                                                 concatenate_52[0][0]             
__________________________________________________________________________________________________
batch_normalization_57 (BatchNo (None, 256, 256, 240 1024        concatenate_53[0][0]             
__________________________________________________________________________________________________
activation_54 (Activation)      (None, 256, 256, 240 0           batch_normalization_57[0][0]     
__________________________________________________________________________________________________
conv2d_60 (Conv2D)              (None, 256, 256, 16) 34576       activation_54[0][0]              
__________________________________________________________________________________________________
dropout_54 (Dropout)            (None, 256, 256, 16) 0           conv2d_60[0][0]                  
__________________________________________________________________________________________________
concatenate_54 (Concatenate)    (None, 256, 256, 256 0           dropout_54[0][0]                 
                                                                 concatenate_53[0][0]             
__________________________________________________________________________________________________
batch_normalization_58 (BatchNo (None, 256, 256, 256 1024        concatenate_54[0][0]             
__________________________________________________________________________________________________
activation_55 (Activation)      (None, 256, 256, 256 0           batch_normalization_58[0][0]     
__________________________________________________________________________________________________
conv2d_61 (Conv2D)              (None, 256, 256, 16) 36880       activation_55[0][0]              
__________________________________________________________________________________________________
dropout_55 (Dropout)            (None, 256, 256, 16) 0           conv2d_61[0][0]                  
__________________________________________________________________________________________________
concatenate_55 (Concatenate)    (None, 256, 256, 272 0           dropout_55[0][0]                 
                                                                 concatenate_54[0][0]             
__________________________________________________________________________________________________
conv2d_transpose_4 (Conv2DTrans (None, 512, 512, 48) 117552      concatenate_55[0][0]             
__________________________________________________________________________________________________
concatenate_56 (Concatenate)    (None, 512, 512, 160 0           conv2d_transpose_4[0][0]         
                                                                 concatenate_4[0][0]              
__________________________________________________________________________________________________
batch_normalization_59 (BatchNo (None, 512, 512, 160 2048        concatenate_56[0][0]             
__________________________________________________________________________________________________
activation_56 (Activation)      (None, 512, 512, 160 0           batch_normalization_59[0][0]     
__________________________________________________________________________________________________
conv2d_62 (Conv2D)              (None, 512, 512, 16) 23056       activation_56[0][0]              
__________________________________________________________________________________________________
dropout_56 (Dropout)            (None, 512, 512, 16) 0           conv2d_62[0][0]                  
__________________________________________________________________________________________________
concatenate_57 (Concatenate)    (None, 512, 512, 176 0           dropout_56[0][0]                 
                                                                 concatenate_56[0][0]             
__________________________________________________________________________________________________
batch_normalization_60 (BatchNo (None, 512, 512, 176 2048        concatenate_57[0][0]             
__________________________________________________________________________________________________
activation_57 (Activation)      (None, 512, 512, 176 0           batch_normalization_60[0][0]     
__________________________________________________________________________________________________
conv2d_63 (Conv2D)              (None, 512, 512, 16) 25360       activation_57[0][0]              
__________________________________________________________________________________________________
dropout_57 (Dropout)            (None, 512, 512, 16) 0           conv2d_63[0][0]                  
__________________________________________________________________________________________________
concatenate_58 (Concatenate)    (None, 512, 512, 192 0           dropout_57[0][0]                 
                                                                 concatenate_57[0][0]             
__________________________________________________________________________________________________
batch_normalization_61 (BatchNo (None, 512, 512, 192 2048        concatenate_58[0][0]             
__________________________________________________________________________________________________
activation_58 (Activation)      (None, 512, 512, 192 0           batch_normalization_61[0][0]     
__________________________________________________________________________________________________
conv2d_64 (Conv2D)              (None, 512, 512, 16) 27664       activation_58[0][0]              
__________________________________________________________________________________________________
dropout_58 (Dropout)            (None, 512, 512, 16) 0           conv2d_64[0][0]                  
__________________________________________________________________________________________________
concatenate_59 (Concatenate)    (None, 512, 512, 208 0           dropout_58[0][0]                 
                                                                 concatenate_58[0][0]             
__________________________________________________________________________________________________
batch_normalization_62 (BatchNo (None, 512, 512, 208 2048        concatenate_59[0][0]             
__________________________________________________________________________________________________
activation_59 (Activation)      (None, 512, 512, 208 0           batch_normalization_62[0][0]     
__________________________________________________________________________________________________
conv2d_65 (Conv2D)              (None, 512, 512, 16) 29968       activation_59[0][0]              
__________________________________________________________________________________________________
dropout_59 (Dropout)            (None, 512, 512, 16) 0           conv2d_65[0][0]                  
__________________________________________________________________________________________________
concatenate_60 (Concatenate)    (None, 512, 512, 224 0           dropout_59[0][0]                 
                                                                 concatenate_59[0][0]             
__________________________________________________________________________________________________
conv2d_66 (Conv2D)              (None, 512, 512, 3)  675         concatenate_60[0][0]             
==================================================================================================
Total params: 4,178,823
Trainable params: 4,160,135
Non-trainable params: 18,688
__________________________________________________________________________________________________
[Epoch 0/200] [Batch 0/12774] [D loss: 11.293127, acc:  40%] [G loss: 15057510.000000] time: 0:01:55.824172
…
